filter parameters.npy (npy, 3328 bytes, 1 tensors)

array f8 [400]
-0.0007231117650370806 -0.00048107315824119255 -0.0006135822685633489 -0.0007470437355639277 -0.0008737740362544322 -0.0009829055303967346 -0.001064048292950112 -0.0011066606910254773
-0.0011018743244106414 -0.001038129570815158 -0.0009100515367269646 -0.0007121832533754042 -0.00044166564941018605 -0.0001009287208277868 0.0003060233293387591 0.0007690424865501864
0.0012759777109359158 0.001810731426970766 0.002354684648558643 0.0028866019012804 0.003385200200717537 0.0038277807170663753 0.0041943491000880975 0.004465838333932099
0.004627779117024003 0.004669619255930867 0.004586264363278627 0.004378087553229425 0.0040518711198286655 0.0036197878836545017 0.003100056364757827 0.002515027562758117
0.0018909957660225545 0.0012565511389151368 0.0006409077256587664 7.266822100726838e-05 -0.0004220943118428933 -0.0008211898170889176 -0.0011076429617712935 -0.0012708201826808591
-0.0013070897194112881 -0.0012198379965325866 -0.0010198736528903526 -0.0007242594606870204 -0.00035588109496867784 5.829088410956053e-05 0.000488618414067798 0.0009046675073799399
0.0012770799285360447 0.0015795850735161757 0.0017904099279238536 0.001894011104664363 0.0018818870954449615 0.0017533000337521104 0.001515427901650532 0.0011827577138922012
0.000776443689880453 0.0003228093001421418 -0.000148264638357323 -0.0006053498798085396 -0.0010175009067148531 -0.0013564961881457613 -0.0015985536180544992 -0.0017263652909610158
-0.001730012014330579 -0.001608050189391549 -0.0013675532710777203 -0.001023911197332825 -0.0005998078220705613 -0.00012391001955735516 0.00037117495523784444 0.0008508331224938122
0.0012810248608244367 0.0016304845096224477 0.00187301228383195 0.001989389274367527 0.001968811961057173 0.001809869350686415 0.001520821191874746 0.0011191912784329597
0.0006307820577227841 8.80676716860406e-05 -0.0004719938806274925 -0.0010103227236939656 -0.0014885600514197665 -0.0018716144115648544 -0.002130307870508356 -0.002243505975544872
-0.002199820285954587 -0.001998598036246036 -0.0016502978686730842 -0.0011759331204638475 -0.0006059706583279962 2.167735828404599e-05 0.0006640745123304226 0.0012761371280228338
0.001813785863922503 0.0022370189299129686 0.0025128699541253205 0.002617892336965147 0.002540067908419688 0.0022799520127425414 0.0018510212678318398 0.001278980823840475
0.0006004101084757566 -0.00013963785827703204 -0.0008904616755300981 -0.0015992125928793132 -0.0022144985778591105 -0.002690089950458699 -0.0029882559845528654 -0.0030827542886731844
-0.0029609083765815094 -0.0026249946817157093 -0.0020924433574409937 -0.0013951092271898917 -0.0005774497371014624 0.00030623849850200857 0.0011953381221529618 0.0020269774096439252
0.002740400694918311 0.003281297238663817 0.0036058257726482865 0.0036840569419888773 0.0035024634832559395 0.003065474550007205 0.002395675390709626 0.001532866124454425
0.0005317908858959063 -0.0005411840674675796 -0.0016123745882704252 -0.0026056695013450394 -0.0034478576620137836 -0.0040738037660390585 -0.00443136016803909 -0.004485449374841499
-0.004221148332104239 -0.003645466934318484 -0.002787639356458475 -0.001697906113987208 -0.00044477496070199305 0.0008890932404512215 0.0022121388603642224 0.003429944097308185
0.0044517648003536995 0.005196958363541815 0.005601090014207714 0.005621024651021568 0.005238861030784017 0.004464194613448087 0.0033346539492679385 0.0019144493288665134
0.0002911253180629508 -0.0014295382044709451 -0.0031299731759019764 -0.0046884763255369746 -0.005987400690002596 -0.00692148817562587 -0.007405717813783243 -0.007382150768092894
-0.006825261817132456 -0.0057453474447764705 -0.004189672975317128 -0.0022412045309519787 -1.4912157643031911e-05 0.0023482954653444754 0.004689591479778425 0.006841945088002159
0.008640798450120387 0.009935241474861958 0.010598853036464538 0.010539628064031366 0.009708202529158765 0.0081039288209593 0.005778163347181696 0.0028346204842061426
-0.0005735325767193152 -0.004249662761040837 -0.007962599198811713 -0.011458053242145067 -0.01447196239121689 -0.016745050999726997 -0.01803780036679381 -0.01814497630191281
-0.016908852860292443 -0.014230372691486677 -0.010077452673388401 -0.0044900157166209865 0.002418795546258849 0.010465218370346472 0.0194014050017165 0.0289254793824838
0.038694772104882855 0.04834144486810189 0.05748984691270519 0.06577452612325303 0.07285810557798347 0.07844789988854721 0.08231050333106725 0.08428346692430004
0.08428346692430004 0.08231050333106725 0.07844789988854721 0.07285810557798347 0.06577452612325303 0.05748984691270519 0.04834144486810189 0.038694772104882855
0.0289254793824838 0.0194014050017165 0.010465218370346472 0.002418795546258849 -0.0044900157166209865 -0.010077452673388401 -0.014230372691486677 -0.016908852860292443
-0.01814497630191281 -0.01803780036679381 -0.016745050999726997 -0.01447196239121689 -0.011458053242145067 -0.007962599198811713 -0.004249662761040837 -0.0005735325767193152
0.0028346204842061426 0.005778163347181696 0.0081039288209593 0.009708202529158765 0.010539628064031366 0.010598853036464538 0.009935241474861958 0.008640798450120387
0.006841945088002159 0.004689591479778425 0.0023482954653444754 -1.4912157643031911e-05 -0.0022412045309519787 -0.004189672975317128 -0.0057453474447764705 -0.006825261817132456
-0.007382150768092894 -0.007405717813783243 -0.00692148817562587 -0.005987400690002596 -0.0046884763255369746 -0.0031299731759019764 -0.0014295382044709451 0.0002911253180629508
0.0019144493288665134 0.0033346539492679385 0.004464194613448087 0.005238861030784017 0.005621024651021568 0.005601090014207714 0.005196958363541815 0.0044517648003536995
00000000: be81 ebb0 e6b1 47bf b80f 4c7b 1187 3fbf
00000010: 55f8 70e3 191b 44bf 58d9 da34 a87a 48bf
00000020: cd8b 7474 bfa1 4cbf 894c ebc6 9a1a 50bf
00000030: 5949 a727 f16e 51bf a93f 72de ab21 52bf
00000040: 8763 028c 980d 52bf c1f5 8f23 3b02 51bf
00000050: 0adc 40cb 10d2 4dbf d3c7 18e4 3956 47bf
00000060: fea0 1d85 ebf1 3cbf 18c0 8138 3675 1abf
00000070: 6d8b fa30 380e 343f fe9b 1b2a 3233 493f
00000080: 3240 7da2 d6e7 543f 5af6 ae10 c2aa 5d3f
00000090: 77bf dab1 214a 633f c0fa 6698 a4a5 673f
000000a0: 0e3c e184 47bb 6b3f 32b8 df1f 705b 6f3f
000000b0: 88fa 6703 182e 713f 7ad1 7e59 c54a 723f
000000c0: 4326 5fff 93f4 723f 58ec d25f 7320 733f
000000d0: 36ac 37f7 0bc9 723f 7227 c3ed c1ee 713f
000000e0: a705 28df b198 703f 4d25 85d2 3ea7 6d3f
000000f0: c5fd 7916 4a65 693f f7bf 2d24 659a 643f
00000100: 7349 343e 69fb 5e3f bb78 0883 5b96 543f
00000110: 8abd 58dc 5200 453f b080 de87 ae0c 133f
00000120: c3ad e343 91a9 3bbf c310 40b4 a3e8 4abf
00000130: 0013 f992 ca25 52bf b1e1 eac7 34d2 54bf
00000140: ef81 42e6 546a 55bf 1e32 4c13 5ffc 53bf
00000150: eac7 0dff a8b5 50bf f9ac 4659 87bb 47bf
00000160: 4412 06aa b152 37bf f074 f986 ab8f 0e3f
00000170: c810 e80d d402 403f f153 d1ad e6a4 4d3f
00000180: 1595 c121 76ec 543f c91d d98e 42e1 593f
00000190: 3739 8f05 8655 5d3f 07c8 2df0 0e08 5f3f
000001a0: 189d e6e1 34d5 5e3f bbca 8593 dfb9 5c3f
000001b0: c1f0 ba51 2ad4 583f fd09 d16c d860 533f
000001c0: 401e ab20 4871 493f 167e 0f63 d727 353f
000001d0: 5c48 b98b ef6e 23bf 1c74 dcf7 0ad6 43bf
000001e0: 9e28 8d47 b5ab 50bf ff9a f9b0 8e39 56bf
000001f0: 0128 abe0 d130 5abf 8ed5 cc9d e648 5cbf
00000200: b5b6 7c41 3258 5cbf 5823 52be a658 5abf
00000210: b2cb c924 ef67 56bf 5bc2 d146 98c6 50bf
00000220: 1c17 667d 8da7 43bf 383f 9af6 ba3d 20bf
00000230: ab26 394b 4853 383f de4c bd37 4ee1 4b3f
00000240: 1995 7cf8 01fd 543f 1644 4f69 bfb6 5a3f
00000250: ba97 42a0 fbaf 5e3f e9e0 ea3b 0d4c 603f
00000260: 52c7 82df e520 603f 7b72 f56a 24a7 5d3f
00000270: 0a01 0f52 c9ea 583f f2eb 157c 3a56 523f
00000280: 9a82 8727 62ab 443f f028 3314 1f16 173f
00000290: 1332 fd47 beee 3ebf 5a80 a0c3 998d 50bf
000002a0: ab72 4b2f 7963 58bf eaa2 0eac 1eaa 5ebf
000002b0: bcbb 4b54 9473 61bf bc16 6319 f960 62bf
000002c0: 4696 ed85 5b05 62bf 1b4a 8326 5d5f 60bf
000002d0: b499 f9d7 d909 5bbf 6ff6 db92 3844 53bf
000002e0: 581b 7614 40db 43bf 0068 e2b7 f8ba f63e
000002f0: 482c 0228 a9c2 453f 2875 b9ce 81e8 543f
00000300: 086d ebbd 91b7 5d3f 95d1 9f64 5e53 623f
00000310: 9eca b4c8 de95 643f a048 183f 1e72 653f
00000320: 53bd 1493 e8ce 643f d803 99ea 67ad 623f
00000330: 5979 cff3 be53 5e3f e5f7 e033 6ff4 543f
00000340: 2c07 dae3 9aac 433f 2ee8 b411 784d 22bf
00000350: 75c8 2ae3 bb2d 4dbf eb05 4a72 9533 5abf
00000360: 9195 01df 2324 62bf d35d 890b 8709 66bf
00000370: e12f 39b7 d37a 68bf b41e 3f1b 0141 69bf
00000380: 5595 9a94 7941 68bf ceb0 ec49 0381 65bf
00000390: 4202 3ff9 2b24 61bf 2606 5420 83db 56bf
000003a0: b21a 33de ffeb 42bf 56c2 f955 d411 343f
000003b0: 4f97 1b89 9c95 533f 9791 e435 e19a 603f
000003c0: e87f 9a6b 0973 663f 6834 830a 61e1 6a3f
000003d0: 825b 98f8 f689 6d3f 9861 a302 072e 6e3f
000003e0: 706c b6c3 32b1 6c3f 604c 0c1e c41c 693f
000003f0: 14c9 8e6e 18a0 633f 3857 ea77 4e1d 593f
00000400: a33e 4b3b fc6c 413f ba4e 79ef c7bb 41bf
00000410: 6091 0808 ca6a 5abf 5fd8 5b29 7c58 65bf
00000420: 929f c97c ae3e 6cbf 079a 205f b1af 70bf
00000430: 4ef5 f92f 9e26 72bf 6605 f7a5 555f 72bf
00000440: 3e74 9be0 314a 71bf 6198 5e28 19dd 6dbf
00000450: 6f1b cf7b 1ad6 66bf 82db ccce 88d1 5bbf
00000460: 9113 09e9 1526 3dbf fccd 0632 4122 4d3f
00000470: 3638 e701 311f 623f 8c95 3337 1d19 6c3f
00000480: 03ce a183 033c 723f e782 5ce3 6749 753f
00000490: 7876 ed26 2bf1 763f 1b05 bd50 1206 773f
000004a0: b664 ba0c 5875 753f 2e42 e21d 0c49 723f
000004b0: 4889 fab4 4651 6b3f b41b 7850 c85d 5f3f
000004c0: c2a6 59b8 4514 333f f29c 8af5 ea6b 57bf
000004d0: 94ff b08d 07a4 69bf b6af c747 3934 73bf
000004e0: 8bfd 6ca2 3e86 78bf f6d5 a9d5 b459 7cbf
000004f0: 4285 043d 7555 7ebf fa37 f801 bf3c 7ebf
00000500: ced7 a844 cef4 7bbf 5851 12f6 6e88 77bf
00000510: 740a 8fc6 3029 71bf cc30 4085 255c 62bf
00000520: b0e5 2857 e745 efbe 6932 3387 bb3c 633f
00000530: f891 98a0 6435 733f ebcf 4da6 4c06 7c3f
00000540: de68 0956 44b2 813f 1bfc b289 ed58 843f
00000550: 2c74 55f9 d9b4 853f a4b1 c6ee cc95 853f
00000560: 5cea ece2 e4e1 833f aa82 0aea ca98 803f
00000570: 58a5 b6e9 d7aa 773f 1eef d648 a138 673f
00000580: 966f 81d4 23cb 42bf c941 3e29 1868 71bf
00000590: 854e 33f9 b14e 80bf ea51 9bdf 5177 87bf
000005a0: 1c0a 6fe9 79a3 8dbf 9d9b a759 9d25 91bf
000005b0: 002b ab4a 8078 92bf 41b1 36bf 9894 92bf
000005c0: e6fa 30e8 8d50 91bf 5701 8f4a d024 8dbf
000005d0: e805 46cd 7ca3 84bf f225 956a 1f64 72bf
000005e0: 8961 8af8 94d0 633f 9f49 2bd5 c96e 853f
000005f0: a050 ea3f f6dd 933f c024 e00f a49e 9d3f
00000600: 16ec 6e19 cdcf a33f e2f0 7fb9 35c0 a83f
00000610: bf29 af28 4f6f ad3f 15f9 9b6e 99d6 b03f
00000620: 6ab9 b42c d4a6 b23f b310 765c 2915 b43f
00000630: 879a ec17 4d12 b53f b38a 08ee 9993 b53f
00000640: b38a 08ee 9993 b53f 879a ec17 4d12 b53f
00000650: b310 765c 2915 b43f 6ab9 b42c d4a6 b23f
00000660: 15f9 9b6e 99d6 b03f bf29 af28 4f6f ad3f
00000670: e2f0 7fb9 35c0 a83f 16ec 6e19 cdcf a33f
00000680: c024 e00f a49e 9d3f a050 ea3f f6dd 933f
00000690: 9f49 2bd5 c96e 853f 8961 8af8 94d0 633f
000006a0: f225 956a 1f64 72bf e805 46cd 7ca3 84bf
000006b0: 5701 8f4a d024 8dbf e6fa 30e8 8d50 91bf
000006c0: 41b1 36bf 9894 92bf 002b ab4a 8078 92bf
000006d0: 9d9b a759 9d25 91bf 1c0a 6fe9 79a3 8dbf
000006e0: ea51 9bdf 5177 87bf 854e 33f9 b14e 80bf
000006f0: c941 3e29 1868 71bf 966f 81d4 23cb 42bf
00000700: 1eef d648 a138 673f 58a5 b6e9 d7aa 773f
00000710: aa82 0aea ca98 803f 5cea ece2 e4e1 833f
00000720: a4b1 c6ee cc95 853f 2c74 55f9 d9b4 853f
00000730: 1bfc b289 ed58 843f de68 0956 44b2 813f
00000740: ebcf 4da6 4c06 7c3f f891 98a0 6435 733f
00000750: 6932 3387 bb3c 633f b0e5 2857 e745 efbe
00000760: cc30 4085 255c 62bf 740a 8fc6 3029 71bf
00000770: 5851 12f6 6e88 77bf ced7 a844 cef4 7bbf
00000780: fa37 f801 bf3c 7ebf 4285 043d 7555 7ebf
00000790: f6d5 a9d5 b459 7cbf 8bfd 6ca2 3e86 78bf
000007a0: b6af c747 3934 73bf 94ff b08d 07a4 69bf
000007b0: f29c 8af5 ea6b 57bf c2a6 59b8 4514 333f
000007c0: b41b 7850 c85d 5f3f 4889 fab4 4651 6b3f
000007d0: 2e42 e21d 0c49 723f b664 ba0c 5875 753f
000007e0: 1b05 bd50 1206 773f 7876 ed26 2bf1 763f
000007f0: e782 5ce3 6749 753f 03ce a183 033c 723f
